Starting ViT Embedding Creation
set up device
device:  cuda
loaded model
printing architecture
ViTModel(
  (embeddings): ViTEmbeddings(
    (patch_embeddings): ViTPatchEmbeddings(
      (projection): Conv2d(3, 1280, kernel_size=(14, 14), stride=(14, 14))
    )
    (dropout): Dropout(p=0.0, inplace=False)
  )
  (encoder): ViTEncoder(
    (layer): ModuleList(
      (0-31): 32 x ViTLayer(
        (attention): ViTAttention(
          (attention): ViTSelfAttention(
            (query): Linear(in_features=1280, out_features=1280, bias=True)
            (key): Linear(in_features=1280, out_features=1280, bias=True)
            (value): Linear(in_features=1280, out_features=1280, bias=True)
            (dropout): Dropout(p=0.0, inplace=False)
          )
          (output): ViTSelfOutput(
            (dense): Linear(in_features=1280, out_features=1280, bias=True)
            (dropout): Dropout(p=0.0, inplace=False)
          )
        )
        (intermediate): ViTIntermediate(
          (dense): Linear(in_features=1280, out_features=5120, bias=True)
          (intermediate_act_fn): GELUActivation()
        )
        (output): ViTOutput(
          (dense): Linear(in_features=5120, out_features=1280, bias=True)
          (dropout): Dropout(p=0.0, inplace=False)
        )
        (layernorm_before): LayerNorm((1280,), eps=1e-12, elementwise_affine=True)
        (layernorm_after): LayerNorm((1280,), eps=1e-12, elementwise_affine=True)
      )
    )
  )
  (layernorm): LayerNorm((1280,), eps=1e-12, elementwise_affine=True)
  (pooler): ViTPooler(
    (dense): Linear(in_features=1280, out_features=1280, bias=True)
    (activation): Tanh()
  )
)
loaded processor
first train image path
../../../Images/train/No Blur/Sedan_train_orig_test_01516_resized_no_blur.jpg
first train embedding
tensor([[-0.2450,  0.0850, -0.1178,  ..., -0.2369, -0.0316, -0.2619]],
       device='cuda:0')
first train embedding list
[… length of first train embedding list
1280
length train_embeddings_lists
…
